onnx_model.onnx (onnx, 2037 bytes, 5 tensors)

model.0.weight f4 [20, 8]
0	0xbd5d8388	-0.054080516
1	0x3dbdb334	0.09262696
2	0xbeab9af8	-0.3351667
3	0xbd3bb3c8	-0.04582575
4	0x3e157e74	0.1459902
5	0xbe723f82	-0.23657039
6	0xbb86e340	-0.004116446
7	0x3e93d943	0.28876695
8	0xbeab1d01	-0.33420566
9	0xbe88cd1e	-0.26718992
10	0xbede20e5	-0.43384472
11	0xbe8d6fb9	-0.276243
12	0xbf262373	-0.6489784
13	0x3e010317	0.12598835
14	0x3dc8584b	0.097824655
15	0xbe869326	-0.2628414
16	0xbdbc592c	-0.09196696
17	0xbb428e93	-0.0029687032
18	0xbd0ff609	-0.035146747
19	0x3e3cf48d	0.18452664
20	0xbe403ff1	-0.18774392
21	0x3d3dda39	0.04635069
22	0xbc861397	-0.016366763
23	0xbf79e183	-0.9760973
24	0xbe063301	-0.13105394
25	0xbea1cfe1	-0.31603912
26	0xbe29836e	-0.16554043
27	0xbe7af4a0	-0.2450738
28	0xbdc90164	-0.09814718
29	0x3e041e4c	0.12902182
30	0xbe70ecba	-0.23527804
31	0x3d9bda08	0.076099455
32	0x3da24012	0.07922377
33	0x3b89e532	0.0042082304
34	0x3d3c36a2	0.04595054
35	0x3ea83efd	0.32860556
36	0xbed58292	-0.4170118
37	0x3e6b54e0	0.22981596
38	0xbebd949c	-0.37027442
39	0xbec46459	-0.3835781
40	0x3e5c8f50	0.21539044
41	0x3e16be5b	0.14721052
42	0x3ebdee64	0.3709594
43	0x3ea9fc8c	0.3320049
44	0x3eef735a	0.46767694
45	0x3deacd7e	0.11464976
46	0xbe3d4531	-0.18483426
47	0x3e11aa39	0.14225091
48	0x3e8e2c59	0.2776821
49	0xbe3bc9c7	-0.1833869
50	0xbe867af6	-0.26265687
51	0xbef00255	-0.4687678
52	0x3ec6b4df	0.3880987
53	0x3c82f56c	0.015986167
54	0x3e353eac	0.17699689
55	0x3e7e0258	0.24805582
56	0xbe90edcb	-0.28306422
57	0x3d4a92c8	0.049456388
58	0x3da24a9c	0.07924387
59	0x3c31fea0	0.01086393
60	0x3d962178	0.073306024
61	0x3e262652	0.16225556
62	0xbe9b54a6	-0.3033802
63	0xbe829104	-0.25501263
64	0x3ea6019a	0.32423097
65	0x3d0450db	0.032303672
66	0x3e294f28	0.16534102
67	0xbf0bdd70	-0.5463476
68	0x3f193cd8	0.59858465
69	0x3e3919ff	0.18076323
70	0xbdf18e72	-0.117947474
71	0x3eb02290	0.3440137
72	0x3e819b38	0.25313735
73	0x3e965b04	0.29366314
74	0xbe02d7d0	-0.12777638
75	0x3c809a71	0.015698643
76	0x3e2c5771	0.16830231
77	0x3ceb7df4	0.028746583
78	0xbe9ef2e4	-0.31044686
79	0x3e91dab1	0.2848716
80	0x3ece0e26	0.4024517
81	0x3db6a2c2	0.08917762
82	0xbd75fe81	-0.060057167
83	0xbe91297a	-0.28351957
84	0x3e9ba636	0.30400246
85	0x3e6415b0	0.22273898
86	0xb99ee250	-0.00030304724
87	0x3c81defd	0.0158534
88	0xbd5d89cf	-0.054086503
89	0xbd9a0fdf	-0.075225584
90	0xbda91a10	-0.08256924
91	0x3d4dd00f	0.05024725
92	0xbd6ebfa6	-0.05828824
93	0xbbeaa503	-0.007160784
94	0x3d8683c6	0.065681025
95	0xbf348b86	-0.70525396
96	0xbdb9281d	-0.09040854
97	0xbdfe0ce6	-0.12404804
98	0xbe842549	-0.25809696
99	0x3dbd333e	0.09238289
100	0xbf1ff8a4	-0.6248877
101	0x3c66ab7f	0.014078974
102	0x3c8fe21f	0.017563878
103	0x3dbae8af	0.09126412
104	0x3e8657cd	0.26238862
105	0x3da3b570	0.07993591
106	0x3e34df32	0.17663267
107	0xbcc61bf0	-0.024183244
108	0x3eae5f09	0.3405688
109	0xbd8ae800	-0.06782532
110	0xbe2b2097	-0.16711651
111	0xbe82fdd6	-0.25584286
112	0xbd356f50	-0.04429561
113	0xbd71a648	-0.05899647
114	0xbe8ef2a7	-0.27919504
115	0xbd94bb7c	-0.07262322
116	0xbe54a8db	-0.20767538
117	0xbe94c6b3	-0.29057845
118	0xbd37f168	-0.044907957
119	0x3d0edac8	0.034876615
120	0x3e805543	0.2506505
121	0x3ed8479a	0.42242128
122	0x3d8e1632	0.06937827
123	0xbe96de88	-0.29466653
124	0x3d3bf7a6	0.045890473
125	0xbe23cf65	-0.15997083
126	0x3e7f82ec	0.24952286
127	0xbd005c4b	-0.031338017
128	0xbd2299b4	-0.039697364
129	0x3e4f9d50	0.20274854
130	0xbda05569	-0.07828791
131	0xbd7bf5d4	-0.061513737
132	0x3f0baf29	0.5456415
133	0x3dff034f	0.12451803
134	0x3dd6019c	0.10449526
135	0x3e18156c	0.14851922
136	0x3d81cb36	0.063375875
137	0x3ea66f75	0.3250691
138	0x3d137db7	0.036008563
139	0xbe8c63ee	-0.2741999
140	0x3f546f3d	0.82982236
141	0x3d134fa2	0.035964616
142	0xbc8501b3	-0.016236162
143	0x3eb35334	0.35024416
144	0x3e659f5a	0.22424069
145	0xbbc27e7e	-0.005935489
146	0xbca9531e	-0.020669516
147	0xbe60c841	-0.21951391
148	0xbddfedc6	-0.109340236
149	0x3e2743d9	0.16334476
150	0xbe82058f	-0.25394866
151	0xbc1318e0	-0.008978099
152	0xbe47ceb1	-0.1951244
153	0x3e6df626	0.2323843
154	0xbe8ce206	-0.27516192
155	0x3e0d2aa8	0.13785803
156	0xbe14889f	-0.14505242
157	0xbe94ee97	-0.2908828
158	0xbd1ed0e8	-0.038773447
159	0x3de6b744	0.11265424

model.0.bias f4 [20]
0	0x3dabe75c	0.08393738
1	0x3e46d79c	0.19418186
2	0xbe25ebe7	-0.16203271
3	0xbe5c02a8	-0.21485388
4	0x3cf241c5	0.029572377
5	0x3e013e4a	0.12621418
6	0x3e3b411d	0.18286557
7	0xbdc33354	-0.095312744
8	0xbeab7672	-0.33488804
9	0x3eaf0ecf	0.34190986
10	0xbdff1485	-0.12455086
11	0x3e8fc094	0.28076613
12	0x3e97a1af	0.29615542
13	0x3e3f8fc6	0.18707189
14	0x3bb14880	0.005410254
15	0xbe3500cc	-0.17676085
16	0xbdf4108a	-0.11917217
17	0xbebfca04	-0.37458813
18	0x3e9c6682	0.30546957
19	0x3e8e5b27	0.2780392

model.3.weight f4 [5, 20]
0	0x3ddff82c	0.10936007
1	0xbdccb16a	-0.099947765
2	0xbd029b7f	-0.031886574
3	0x3c83c920	0.016087115
4	0x3d6f158e	0.058370166
5	0xbc3876dd	-0.011258808
6	0xbcb86d61	-0.022513093
7	0xbd5d2a54	-0.053995445
8	0xbe2df743	-0.16988854
9	0x3e0174ad	0.12642165
10	0xbd89c48d	-0.06726942
11	0x3df19db8	0.117976606
12	0xbd23ee24	-0.04002203
13	0x3e30a6ae	0.17251083
14	0x3d5f37c8	0.054496557
15	0xbdbc084a	-0.091812685
16	0xbdd51f9e	-0.10406421
17	0xbe146862	-0.14492944
18	0xbd885271	-0.066563495
19	0xbe271eea	-0.16320387
20	0x3dbcaf8c	0.092131704
21	0xbdf71225	-0.12064008
22	0xbec3182a	-0.38104373
23	0xbe326a91	-0.17423464
24	0xbe18c1b1	-0.14917637
25	0xbdb479bd	-0.08812282
26	0xbd97b5c0	-0.07407713
27	0xbe419349	-0.18903841
28	0xbda70f5a	-0.08157225
29	0xbd846d44	-0.06466153
30	0x3e63b6d5	0.22237714
31	0xbebe1af9	-0.37129954
32	0xbe58ae8c	-0.21160334
33	0xba694e00	-0.00088998675
34	0x3de2fcd0	0.110833764
35	0xbd9e3f27	-0.07726889
36	0xbd0a55b3	-0.033773135
37	0x3d615a6a	0.055017866
38	0xbd005e9a	-0.03134022
39	0xbd625630	-0.055257976
40	0xbe0d5209	-0.13800825
41	0xbd5341b4	-0.05157633
42	0xbeb06272	-0.34450108
43	0xbe2b120e	-0.16706106
44	0x3e14200f	0.14465354
45	0x3e7f6cf9	0.24943914
46	0x3dbbb3e2	0.09165169
47	0xbe5b8df0	-0.21440864
48	0x3db49eb9	0.088193364
49	0x3d4df420	0.050281644
50	0x3db1fc04	0.08690646
51	0xbe898e8a	-0.2686656
52	0x3b7efa17	0.003890639
53	0xbdece4ce	-0.115670785
54	0x3d72e0a0	0.05929625
55	0x3e24bd6d	0.16087885
56	0xbad01376	-0.001587494
57	0x3e8679b9	0.26264742
58	0xbd2023d4	-0.03909667
59	0x3e1bd01c	0.15216106
60	0x3de82bf4	0.113365084
61	0x3c79d452	0.015248375
62	0x3d0ad779	0.033896897
63	0xbe20e8a2	-0.15713742
64	0x3ddf28e3	0.108964704
65	0xbe3d300f	-0.18475364
66	0xbe0064ee	-0.12538502
67	0x3cde7100	0.027153492
68	0xbe2096f2	-0.15682581
69	0x3dfc6a5f	0.12324976
70	0xbdac1407	-0.084022574
71	0x3e0d94c9	0.13826288
72	0xbd12466e	-0.0357117
73	0xbd9436fc	-0.0723705
74	0xbe42668d	-0.18984433
75	0xbe6560b7	-0.22400175
76	0xbdfd7bdd	-0.12377141
77	0x3def720e	0.11691676
78	0x3dd7f2ab	0.10544332
79	0xbde59936	-0.11210863
80	0xbd47d018	-0.048782438
81	0xbdb225e3	-0.086986326
82	0xbe5d9688	-0.21639454
83	0x3db0b030	0.08627355
84	0xbd87540f	-0.0660783
85	0x3d5f0ca2	0.054455407
86	0x3dd1f013	0.10250869
87	0xbe22ea76	-0.15909752
88	0x3e09b017	0.13446079
89	0xbde27d2e	-0.110590324
90	0xbd9ad768	-0.07560617
91	0xbe8d85f5	-0.27641264
92	0xbe5cfb33	-0.215802
93	0xbd3fb000	-0.046798706
94	0x3e5c33f0	0.21504188
95	0x3e0d4340	0.13795185
96	0x3d96c977	0.07362645
97	0x3d96f219	0.07370395
98	0x3db5d339	0.08878178
99	0xbe52b110	-0.20575356

model.3.bias f4 [5]
0	0xbe8e50f2	-0.2779613
1	0x3e3f2808	0.18667614
2	0x3f060cce	0.5236329
3	0xbe54ca1f	-0.20780228
4	0x3e7aafd1	0.24481131

model.6.weight f4 [1, 5]
0	0xbe3f0e5c	-0.18657821
1	0x3ed91c29	0.42404297
2	0x3df2572b	0.11833032
3	0xbdd02e5d	-0.10165093
4	0x3ead8038	0.33886886
